IMU_Capture/gesture_model.tflite (tflite, 148224 bytes, 6 tensors)

sequential/dense/BiasAdd/ReadVariableOp f4 [50]
000000 00 00 00 00 0d 7d 25 bb c0 3d 4f bb ba 3d 4f bb
       0.0 -0.0025251538 -0.00316225 -0.0031622485
000010 8f 3d 4f bb 98 3d 4f bb 00 00 00 00 5d 93 32 bb
       -0.0031622385 -0.0031622406 0.0 -0.002724848
000020 ad f4 81 3a ae 3c 4f bb 00 00 00 00 00 00 00 00
       0.0009914838 -0.0031621861 0.0 0.0
000030 c5 a8 64 bb d1 f6 45 bb 00 00 00 00 f8 d5 44 bb
       -0.0034890634 -0.0030206928 0.0 -0.0030034762
000040 f5 b9 8f bb 00 00 00 00 00 00 00 00 f5 a7 85 bb
       -0.0043861815 0.0 0.0 -0.00407886
000050 b0 a6 65 bd b3 3c 4f bb 00 00 00 00 ff a2 4f bb
       -0.05606717 -0.0031621873 0.0 -0.0031682847
000060 00 00 00 00 6a 63 97 bb 00 00 00 00 00 00 00 00
       0.0 -0.0046200054 0.0 0.0
000070 00 00 00 00 00 00 00 00 9c 3c 4f bb 00 00 00 00
       0.0 0.0 -0.003162182 0.0
000080 00 00 00 00 00 00 00 00 00 00 00 00 00 00 00 00
       0.0 0.0 0.0 0.0
000090 c1 3c 4f bb 00 00 00 00 0f 65 8e 3d 19 1f a6 bb
       -0.0031621906 0.0 0.06952869 -0.005069625
0000a0 6e 3d 4f bb 00 00 00 00 a1 d4 5e bb 00 00 00 00
       -0.0031622308 0.0 -0.0034001248 0.0
0000b0 b8 3d 4f bb 00 00 00 00 04 ed a2 bb 00 00 00 00
       -0.003162248 0.0 -0.004972102 0.0
0000c0 00 00 00 00 7a 8b d3 bb
       0.0 -0.006455836

sequential/dense_2/BiasAdd/ReadVariableOp f4 [2]
000000 9a 43 59 3d ac 43 59 bd
       0.053042985 -0.053043053

sequential/dense_1/BiasAdd/ReadVariableOp f4 [15]
000000 d7 52 3a be 25 4b 21 be 48 e3 10 3e 34 9b 2a bd
       -0.18195663 -0.15751322 0.14149201 -0.04165192
000010 b0 2a ea bd 4f 33 41 3e 71 d1 56 bc 2c aa 67 3c
       -0.11433923 0.18867229 -0.013111458 0.014139693
000020 0a 2c 9c ba 00 00 00 00 cc aa 5c 3e 1b 3e 4f bb
       -0.001191498 0.0 0.21549529 -0.003162271
000030 d2 11 07 be c0 ae 4a be 02 84 af 3d
       -0.13190392 -0.19793224 0.085701

sequential/dense/MatMul f4 [50, 714]
000000 40 f0 20 bb 80 55 a2 bc 4c c1 be 3c 6c 7e a3 bd
       -0.0024557263 -0.01981616 0.02328553 -0.079830974
000010 8a 15 01 3d 52 96 a3 3d 06 f8 0b bd b2 3c 1b bd
       0.031514682 0.07987656 -0.03417208 -0.03789968
000020 64 2a 9c 3c 0c 37 9c 3d 30 98 58 bc 60 46 d9 3c
       0.019063182 0.07627687 -0.013219878 0.026522815
000030 75 4f a2 bd 58 e5 6f 3c dc b7 53 3d 49 6c 5f bd
       -0.079253115 0.014642082 0.051689014 -0.05454663
000040 cc f7 4f 3d 6a d7 99 bd 2c 14 ae 3d 9f 79 1c bd
       0.050773427 -0.0751179 0.08499941 -0.038201924
000050 a7 c1 a1 bd b2 79 a2 bd 00 1c 31 bc 82 73 19 bd
       -0.078982644 -0.07933368 -0.010809898 -0.037463672
000060 5c 5d 4d 3d 76 95 4c bd 58 32 04 bc 40 a5 b5 3b
       0.050137863 -0.049947225 -0.0080686435 0.005543381
000070 fc c1 84 3d c3 fd 2e bd 88 72 92 3c 80 02 79 3d
       0.06482312 -0.042722475 0.017876878 0.0607934
000080 20 9d 02 3b 8e 14 a2 bd 68 a5 af bd 5c 57 cd bc
       0.001993008 -0.07914077 -0.085764706 -0.02506607
000090 c0 d0 25 3b 34 0a 93 3c 25 4b 57 bd a8 c9 96 3d
       0.0025301427 0.017949201 -0.052561898 0.073626816
0000a0 b6 da 8f bd f0 bc 78 bd ff 00 77 bd b0 09 12 3c
       -0.07024138 -0.06072706 -0.060303684 0.0089134425
0000b0 c0 44 a0 ba eb b0 65 bd ca e6 83 3d 6c 88 ff 3c
       -0.001222752 -0.056076925 0.06440504 0.03119298
0000c0 80 1b 28 bd 0f 63 a9 bd 3d 7f 4c bd 80 cc 79 bb
       -0.04104185 -0.08270847 -0.04992603 -0.0038116276
0000d0 80 1a bd 3b 22 3e 62 bd 8a 69 a6 bd 48 ba d2 bc
       0.0057709813 -0.055235036 -0.08125599 -0.025723591
0000e0 f0 79 f7 3c be f4 53 bd 50 91 7a bd 68 18 47 3c
       0.030209512 -0.051747076 -0.061173737 0.012151815
0000f0 fe 0e fe bc 20 9d ef bc 08 81 98 bd f0 59 51 bc
       -0.031013008 -0.029249728 -0.07446486 -0.01277779
000100 64 a2 a3 3d ea 01 42 bd 70 01 d3 bb 04 6f 52 3d
       0.07989958 -0.047365107 -0.0064393803 0.051375404
000110 e0 53 81 3b 42 8f 6f bd b2 ea b0 bd 18 d8 34 3d
       0.0039467663 -0.05848623 -0.086385146 0.044151396
000120 84 ba a1 3d 3c 81 25 3d de 85 a6 3d 38 26 7e 3d
       0.07896903 0.04040645 0.08131002 0.062048167
000130 54 34 90 bc 4c 68 ab bd 5f 00 37 bd 96 2f b2 3d
       -0.017603077 -0.083695024 -0.04467809 0.087004825
000140 c1 77 45 bd 09 27 8d bd 58 43 62 3c f9 31 61 bd
       -0.04820991 -0.06892211 0.013810001 -0.0549793
000150 58 64 05 3c 6c f4 21 bd 40 6f 8f 3d ff 49 0f bd
       0.0081416 -0.03953974 0.07003641 -0.034982678
000160 5b 84 9b bd c0 91 a4 3a c0 29 e0 ba ba 58 80 bd
       -0.07593604 0.0012555644 -0.0017102286 -0.06266923
000170 28 66 18 3c f8 27 8c 3c b6 15 76 bd aa da 0d 3d
       0.0093017 0.017108902 -0.0600793 0.034632362
000180 30 2d 1c bc a8 bf ac 3c 50 f5 de 3b 00 4a df bb
       -0.009532258 0.021087483 0.006804146 -0.0068142414
000190 d0 00 6c bc fc 11 96 bc cc 40 3a 3d d8 2b 99 3c
       -0.014404491 -0.018319122 0.04547195 0.018697664
0001a0 20 28 47 bb fc fa 94 3d 60 03 84 3d b8 f7 e2 3c
       -0.0030388907 0.07274434 0.06445956 0.027706012
0001b0 34 13 18 3d 0b af 34 bd a8 a2 4c 3c 54 fa 59 3d
       0.03712769 -0.044112246 0.012489952 0.053217247
0001c0 8f 2c 6c bd 3c 06 dc 3c 92 5f 83 3d a0 a1 0f bc
       -0.057659682 0.026858442 0.06414713 -0.008766562
0001d0 cb 72 a3 bd b6 b8 97 bd fe 04 9e 3d 42 98 9f 3d
       -0.079808794 -0.07408278 0.07715796 0.07792713
0001e0 19 48 a4 bd 50 f2 90 3d 8c ba 74 bd 28 d1 62 3d
       -0.08021564 0.070774674 -0.059748217 0.05537525
0001f0 18 da 63 bc 38 f5 02 3d 48 e0 20 bc b9 d7 ad bd
       -0.013906978 0.03197214 -0.009819098 -0.084884115
000200 6a 90 66 bd 50 d4 2c 3d 7a 12 b2 3d 52 30 b1 3d
       -0.056290068 0.042194664 0.086949304 0.086517945
000210 96 d0 fa bc 28 3f 81 3d 80 5a 17 bb b6 6b 96 bd
       -0.03061704 0.06310874 -0.0023094714 -0.07344763
000220 1c 8e ab bc 60 d8 54 bc 18 35 c8 bc ea af 05 bd
       -0.020941786 -0.012991041 -0.02443938 -0.032638468
000230 40 ea 5f 3c 98 ad af 3d de ee 94 bd 04 73 cd 3c
       0.013666689 0.08578032 -0.07272123 0.025079258
000240 cb 16 13 bd 88 bf 75 bd 30 5d 4c bc d4 dd 61 bd
       -0.03591041 -0.05999711 -0.0124733895 -0.055143192
000250 a0 e2 da bb d0 ca 75 bc 60 23 db bc fc 6f a9 bd
       -0.006679848 -0.015001968 -0.026750267 -0.082733124
000260 21 85 b0 bd e4 97 b2 3d 44 01 9a 3d c0 09 d7 ba
       -0.08619142 0.08720377 0.07519773 -0.0016406104
000270 4e 4c 96 3d 9d ed 0a bd a0 25 59 bc ea 2b 4f bd
       0.07338773 -0.033918012 -0.013253599 -0.05057899
000280 68 62 95 3d 18 b2 40 bd 7e da f5 bc 6d 06 2c bd
       0.0729416 -0.047044843 -0.030011412 -0.041998316
000290 60 f2 2b 3d 98 6c ab bd be 4f 91 3d 00 9a 60 3b
       0.041979194 -0.08370322 0.07095288 0.0034271479
0002a0 44 33 0e 3d 80 7b 21 bd c4 ae 9f 3d f0 13 1b 3d
       0.03471686 -0.03942442 0.07797006 0.03786081
0002b0 54 ec 2a 3d 28 b3 1b bc 00 d5 07 ba 90 44 60 3d
       0.041729286 -0.009503163 -0.0005181581 0.054752886
0002c0 e4 7e b0 3d 45 0a 42 bd d0 f9 92 3c b0 46 5e bd
       0.086179525 -0.047373075 0.017941386 -0.05426663
0002d0 e5 ae 06 bd ab 90 31 bd 88 a9 90 3c 7c 6b 9c 3c
       -0.032881636 -0.043350857 0.017658964 0.019094221
0002e0 b4 cf c9 3c f0 e0 6b 3c 7c da 1b 3d f8 ec 08 bc
       0.024635173 0.014396891 0.03805016 -0.008357279
0002f0 6c 37 3f 3d d2 fb 6b bd d2 40 95 bd 60 a8 6d 3b
       0.046683714 -0.0576132 -0.07287754 0.003626369
000300 d4 19 91 bd 96 15 83 3d b8 60 45 3d 28 84 20 3d
       -0.070850044 0.064006016 0.04818794 0.039188534
000310 70 b3 9a 3d 8c 6c c3 bc 76 2c 84 bd 44 f1 0e 3d
       0.07553756 -0.02385547 -0.06453793 0.034898058
000320 17 73 59 bd a0 e9 5f bc ad be ae bd 2f d8 92 bd
       -0.053088274 -0.01366654 -0.08532462 -0.0717014
000330 ac 63 d1 bc b8 a0 03 3d 88 8e 57 3c 8e b1 49 bd
       -0.025560223 0.032135695 0.013156541 -0.049241595
000340 d2 d2 36 bd 78 4d a1 3c 70 88 e6 3b aa 1e 98 3d
       -0.044634648 0.01969026 0.0070353076 0.07427724
000350 70 bc 4b 3d f4 b0 c3 bc 26 ac 4b bd 21 2e 06 bd
       0.049740255 -0.023888089 -0.04972472 -0.032758836
000360 72 29 aa 3d 00 25 2a 3d 10 f0 bf 3c c8 27 66 3c
       0.08308686 0.041539192 0.0234299 0.0140475705
000370 c8 b0 8c 3d 3c d4 59 3d 3e c0 84 3d c4 e7 55 3d
       0.06869656 0.053180918 0.0648198 0.052222982
000380 ae f3 0f 3d 09 1a 88 bd 84 15 a6 3d 93 36 47 bd
       0.0351445 -0.06645591 0.081095725 -0.04863603
000390 80 37 10 ba 00 9e c1 bc 20 c1 89 bd d0 81 a6 bc
       -0.0005501434 -0.02363491 -0.06726289 -0.020325571
0003a0 ca e6 4c bd 34 29 13 bd 7d 1a 60 bd 80 2b 6a 3b
       -0.050024785 -0.035927966 -0.05471276 0.0035731494
0003b0 72 d0 84 3d 54 48 97 3d f8 df 50 3d 6c 37 17 3d
       0.0648507 0.07386842 0.050994843 0.03691809
0003c0 58 39 0c 3c cc 66 b4 3d c0 9d 8e bd ad c3 86 bd
       0.008558594 0.088086694 -0.06963682 -0.06580291
0003d0 90 4f e1 3b b8 aa 68 3d e0 98 4e bc 30 c9 3b 3c
       0.0068759397 0.056803435 -0.01260969 0.011461541
0003e0 90 ce 41 3d 4e c9 a4 3d ac 58 ed 3c b1 9d 5c bd
       0.047316134 0.08046208 0.028972946 -0.053861324
0003f0 ac 69 76 3d ec 72 b3 3d 80 7b 33 ba fc 88 24 3d
       0.06015937 0.08762154 -0.0006846711 0.0401697

sequential/dense_1/MatMul f4 [15, 50]
000000 74 e9 f8 3d 4b 8d 81 be 4e 8b b8 bd 14 fc 55 be
       0.12153903 -0.2530311 -0.09010945 -0.20896941
000010 70 e1 97 3c 65 22 06 be f0 2b 92 bc 18 f5 c0 bd
       0.018540114 -0.13099058 -0.017843217 -0.09421748
000020 22 2d 4b be 3c 88 1e 3e ca cb b3 bd e8 1d 52 3e
       -0.19841436 0.15481657 -0.08779104 0.20519221
000030 70 af c6 3c e0 65 3e bc 3d 8e 94 be 40 b5 ba bb
       0.024253577 -0.011620969 -0.2901477 -0.005697876
000040 a0 39 73 3d e4 23 9f 3d 24 bd c4 3d d0 f0 92 be
       0.059381127 0.077705175 0.09606388 -0.2869935
000050 c4 3c af 3e 74 09 8b 3e fe 2f 40 3e 06 89 96 3e
       0.34226048 0.2715565 0.18768308 0.29401416
000060 e8 af 66 3e 8e 90 e5 bd 3b 74 0a be 74 52 57 3e
       0.2252804 -0.11209212 -0.13520901 0.21027547
000070 cc c2 54 3e af 76 82 be 52 b6 1e 3e 50 cd fa 3c
       0.20777434 -0.25481173 0.15499237 0.030615479
000080 05 08 98 be f0 e3 98 3e 0c 28 8a 3e ba 20 8d 3e
       -0.29693618 0.29861403 0.26983678 0.2756403
000090 1f a2 30 be ee 25 04 3e 5d e5 09 bf 2a fb eb bd
       -0.17249344 0.12905094 -0.53865606 -0.11522515
0000a0 36 9c 21 3e 7e 23 2a 3e 38 92 97 3d f8 7f 4d 3d
       0.15782246 0.16615102 0.07400936 0.05017087
0000b0 96 7c 90 3e f8 d2 49 be b8 22 a5 3d 28 ad 6d 3e
       0.28220052 -0.19709384 0.08063263 0.23210585
0000c0 28 5e 0b 3e 6c 4c 67 be 32 29 17 3e 70 03 11 3c
       0.13610137 -0.22587746 0.14761809 0.008850917
0000d0 28 53 ce 3d 0a c2 58 be b7 ea 52 3b 10 cd 67 3d
       0.100744545 -0.2116777 0.0032183358 0.056592047
0000e0 ca a4 8f be a6 38 bf bd 4a 1c bd bd 29 12 76 3e
       -0.28055412 -0.09336977 -0.09233911 0.24030365
0000f0 60 c4 21 3c 90 c9 6b 3d ae 0c 9d 3e 7d 72 e7 bd
       0.00987348 0.05756527 0.30673736 -0.11301134
000100 60 d3 13 3d 8b 32 61 3e 8d 46 04 bd 10 d0 79 3e
       0.036090255 0.21991937 -0.032293845 0.24395776
000110 a0 bc 79 3d a3 56 52 3e 72 10 99 3e 99 36 4f be
       0.060970902 0.20540862 0.2989536 -0.20235671
000120 b8 40 08 be 69 63 19 3e 20 89 6c 3e b1 fa 6c 3d
       -0.13305938 0.14979328 0.23099184 0.057856265
000130 24 d4 29 be 00 90 7a bb 38 65 1c 3e 60 0c 79 3c
       -0.16584831 -0.0038232803 0.15272987 0.015200704
000140 69 77 93 3d f0 31 c1 3c 20 69 f7 bc b8 fe 85 3e
       0.0720051 0.023583382 -0.030201495 0.26170897
000150 80 75 09 3c b8 0c 83 3d ce 24 b5 3c 0b cf 45 be
       0.008389831 0.0639891 0.022112276 -0.19317262
000160 44 57 f9 be d4 5c 58 3e 2c 9d 8e 3e cd b9 1f be
       -0.4869939 0.21129161 0.27854288 -0.15598221
000170 21 2d 4b be 90 91 6c 3d 42 76 91 3e ce 95 96 3e
       -0.19841434 0.057756007 0.28410536 0.29411167
000180 f5 7d bc 3d 88 1a 32 bd 80 3c b9 3c 18 24 d7 bc
       0.09203712 -0.043482333 0.022611856 -0.026262328
000190 9c 7c 80 3e a9 04 c8 3b 9e 89 75 be 20 ea 82 bd
       0.2509507 0.006104071 -0.23978278 -0.06392312
0001a0 ca 7c 35 3e 00 95 ba 3d 32 ab 1c 3e 27 9b 20 3e
       0.17723384 0.09110451 0.15299681 0.15684186
0001b0 b6 01 15 be c8 b6 3a be 80 cc de 3b 40 b9 e6 3c
       -0.14551434 -0.18233788 0.0067992806 0.028164506
0001c0 be 1f d4 bd da 78 17 be 0c 7c 1f be e1 e9 01 3e
       -0.10357617 -0.14792195 -0.15574664 0.12686874
0001d0 76 db 98 be 2a e2 12 be a0 11 87 3e 31 4d 6e bd
       -0.29854935 -0.14344087 0.26380634 -0.058179084
0001e0 a6 4e 18 be 00 9b f0 bc ea bb 1d 3e 54 d8 ee 3d
       -0.14873752 -0.029370785 0.15403715 0.11662355
0001f0 54 00 87 be 33 4f 80 be c8 d1 3d 3d d0 54 5d be
       -0.26367438 -0.25060424 0.04634264 -0.21614385
000200 e4 d1 7e 3e 9a d2 98 bd fc ac 3c 3e a8 ee 12 3e
       0.24884754 -0.07462044 0.18425363 0.14348853
000210 94 fb f9 3d 40 05 54 3e 84 6a 85 3e 62 31 7b be
       0.12206188 0.20705128 0.26057827 -0.24530557
000220 9e bb 40 be 4c 8b e3 3d f3 4d dd 3e a6 f0 60 be
       -0.1882157 0.11110553 0.43223533 -0.219668
000230 ac d6 86 3d 68 f4 73 3d 9e 07 ed bc 48 87 10 bd
       0.06583914 0.059559256 -0.028934296 -0.035285264
000240 ee 76 1e 3e d4 89 c8 3d a5 61 83 3e 82 44 8f 3e
       0.15475056 0.09791914 0.25660434 0.27981955
000250 7e 2f 16 3e 53 d5 8a 3e 20 fe 28 bc 6f 8e e9 bd
       0.14666554 0.27115878 -0.010314494 -0.1140412
000260 07 7d 0b be 9a 67 cb bb 3e d1 93 3e 92 c2 32 bc
       -0.13621913 -0.0062074186 0.28870577 -0.010910647
000270 82 9c 55 be 35 a1 28 3e 27 f6 68 be 33 8b 69 3e
       -0.20860484 0.16467746 -0.2275015 0.22807007
000280 8c 0b b9 3d 19 21 44 be f9 7e 35 3e 6d 35 19 bd
       0.090354055 -0.19153251 0.17724217 -0.037404466
000290 00 19 f7 bb c9 ff 12 bd af 18 e9 bd e0 f5 ef bc
       -0.007540822 -0.035888467 -0.11381661 -0.029292047
0002a0 a7 84 24 be 22 ee 10 3e bd 46 8e be d6 17 9e 3d
       -0.16066228 0.1415334 -0.27788344 0.0771939
0002b0 f4 0b d8 3d ce 6d 61 be 62 9b 79 be 50 83 80 3e
       0.10549155 -0.22014543 -0.2437568 0.25100183
0002c0 cf 4d 43 be de 62 41 3e 80 ac aa bd 58 e4 58 be
       -0.1907265 0.18885371 -0.08333683 -0.21180856
0002d0 af e1 28 bc 67 76 06 be 78 3b 86 3e 22 87 60 be
       -0.010307713 -0.13131104 0.26217246 -0.21926549
0002e0 2e 0e a6 bd 90 85 e2 3d a7 7f 8b 3d c0 25 11 bc
       -0.08108173 0.11060631 0.06811457 -0.008859098
0002f0 89 60 3a 3c 58 80 4c bd 8c 73 39 be 30 b5 7d 3d
       0.011375555 -0.049927086 -0.18110484 0.061940372
000300 d8 61 fc 3d d8 5c 62 be e3 b0 b7 3d b0 91 e2 bc
       0.1232335 -0.2210573 0.08969285 -0.02765736
000310 94 88 7d bb 6e 3f 3e 3e 40 3c bc bc a2 9d 22 3d
       -0.0038686143 0.18578884 -0.022977948 0.03970111
000320 b6 94 8e 3e 29 9f 82 3e 58 25 24 3e 06 bb b5 3d
       0.27847832 0.25512055 0.1602987 0.088735625
000330 45 25 35 be d9 13 f7 bd c5 c4 2f be f4 da ea bc
       -0.17689998 -0.120643325 -0.17164905 -0.028668858
000340 12 0b 7e be 8f 87 70 be 9c 3a c3 3d 80 90 eb bc
       -0.2480891 -0.23489211 0.09532663 -0.028755426
000350 74 6d 49 3e eb 74 09 be 50 a9 fa 3c cc d4 18 3e
       0.1967066 -0.13423507 0.030598313 0.14924926
000360 aa de 85 be 14 c2 8a be 5a c9 b2 bd f6 a4 85 be
       -0.26146442 -0.27101195 -0.08729811 -0.26102418
000370 54 b9 81 3e 2a b8 38 3d 82 09 81 3e 10 c2 8c 3e
       0.25336707 0.045097508 0.25202566 0.27491808
000380 28 f7 c6 3d 14 11 03 3d 80 13 e1 bc 06 95 cb bd
       0.0971511 0.03199871 -0.027475119 -0.09940533
000390 d2 12 33 3e 70 c6 31 3e 78 a8 8d be a0 de 40 bd
       0.17487648 0.17360854 -0.27667594 -0.04708731
0003a0 18 09 61 be 2a 76 6d be 28 78 82 3e 25 8b 5e be
       -0.21976125 -0.23189607 0.25482297 -0.21732767
0003b0 90 8e d8 3c 5c 22 04 be 34 0d d7 be 86 cc 8d bd
       0.026435167 -0.12903732 -0.4200226 -0.069237754
0003c0 0e 6e c0 3d 9e 1d 8f 3e f4 7a 11 3d 8c 24 65 bd
       0.09395991 0.27952284 0.035517648 -0.055943057
0003d0 8e a0 d0 bb 05 52 8d be 80 47 d0 3d a8 b6 6f 3e
       -0.006366796 -0.27601638 0.101698875 0.23409522
0003e0 c6 f0 c1 bd c6 8e 63 3e 7e c2 0d 3e dd 8c b3 3d
       -0.09469752 0.22222432 0.13843724 0.08767102
0003f0 24 8c 9b 3d 8a 3c 47 be 00 18 a1 3a 20 ec 7d 3d
       0.07595089 -0.19456688 0.0012290478 0.061992764

sequential/dense_2/MatMul f4 [2, 15]
000000 92 9b 2f bf bf 74 2b bf 5f 65 97 3e 59 72 98 be
       -0.68596756 -0.66975015 0.29569528 -0.2977474
000010 e1 98 0f bf f6 2d 94 3f 80 1a f2 bd cf e8 2a 3d
       -0.5609265 1.1576526 -0.11821461 0.04172593
000020 98 89 b2 3e ac 95 c3 3e b2 38 6f 3f 19 2c 0b bf
       0.348706 0.38200128 0.93445885 -0.5436416
000030 58 73 aa bf 59 3c 93 bf 34 57 86 3f f7 02 8c 3f
       -1.331645 -1.1502792 1.0495362 1.0938405
000040 4c a2 a2 3f c4 7c 79 bf 98 13 4a be 3e fd be 3f
       1.2705779 -0.97456 -0.19734037 1.4921033
000050 a6 5a 9b be 61 ba a6 3e 03 f7 e2 bd 19 74 15 3e
       -0.30342597 0.3256407 -0.1108227 0.14595069
000060 d0 8b 5c bd 5d 3c 0c bf a1 53 16 3d f9 bc 89 3f
       -0.053844273 -0.5477961 0.03670085 1.0760795
000070 97 dc d7 3e 3c 1b 29 bd
       0.42160484 -0.04128574
